model/model.pth (torch, 17111 bytes, 4 tensors)

linear1.weight f4 [256, 11]
-0.13580264 0.5814019 0.5259865 0.030686509 0.09706011 0.31003508 -0.5541538 -0.30639848
-0.29840562 0.15278219 -0.2900323 0.22929206 -0.23043795 0.31943175 0.27217206 -0.3072824
-0.37506354 0.313466 -0.4952408 -0.51536477 0.18248552 -0.3837099 -0.46159956 0.7218249
0.12577635 -0.08175055 0.23204696 -0.5061287 -0.6790444 -0.01535792 0.3602374 -0.36751857
-0.456982 0.32725972 -0.45974362 -0.62590057 0.2862127 -0.10327672 0.07041963 -0.1637689
-0.367043 -0.058757804 0.056676213 0.14639865 -0.30136445 -0.57739353 -0.40700763 0.5508403
0.44944122 0.25305322 0.30408663 -0.6045673 -0.24171953 -0.19092599 -0.44410518 0.32604596
1.0041451 -0.47326842 0.10526135 -0.13256761 -0.2412395 -0.14382738 0.19973963 0.36774555
-0.14807694 -0.022602728 0.42778242 0.29757306 0.02602421 0.122004844 -0.40735507 -0.45463413
-0.83470726 -0.48914418 0.28848833 -0.5573253 0.052980945 -0.26124686 -0.09165186 -0.42527053
0.274792 -0.25039443 -0.083290264 0.4798786 -0.027326271 0.075363316 -0.7456184 0.068961315
0.069042884 0.1081194 -0.22984189 -0.2604269 -0.29404885 0.14944857 0.11048716 0.07530938
0.05462381 -0.29103732 -0.1178515 -0.17859752 -0.052359466 -0.004619239 -0.3726603 -0.40895063
-0.3346439 0.19747965 -0.57958883 -0.56792384 -0.32989877 0.18586747 0.367485 -0.0016294561
0.016955897 -0.28135377 0.5021484 -0.0027303498 -0.055824146 -0.31733692 -0.5213604 -0.23377758
-0.1466452 -0.8198995 0.03365939 0.61602235 0.45974174 0.22142005 0.3377211 0.106933475
-0.2870823 -0.18626681 -0.09285073 -0.2219971 -0.35783592 -0.5813111 0.6228151 0.42275107
0.06575257 0.5678975 -0.268227 -0.2098819 0.1396729 0.06705467 -0.7347655 -0.00020492077
-0.09195875 -0.29828033 -0.2537763 -0.02366823 -0.23441231 -0.089520276 -0.2728499 -0.17609218
0.24986827 0.24265283 0.07420785 0.46425867 -0.2590683 -0.103678465 0.22992983 -0.89185524
-0.17213246 -0.5594129 0.34120956 -0.44362852 -0.73932904 0.725247 0.02362804 0.065191835
-0.3893525 0.33799624 0.10737227 0.19027106 0.18046549 -0.40588632 -0.4896646 -0.4020658
-0.19982387 0.016213782 0.16541724 -0.608343 0.1268501 -0.62564677 0.35610056 -0.7362568
-0.9356367 -0.5599763 0.23411016 -0.4363083 -0.34354642 0.5161422 -0.27013674 -0.007233822
0.13277665 -0.37615496 -0.35192314 0.11515338 -0.23191737 -0.14385185 -0.1929644 -0.4147406
0.9429674 0.2619151 -0.2770375 -0.08313663 -0.008121164 0.3392666 -0.029647032 -0.4808273
-0.3738906 -0.57133 0.27928677 0.29435438 -0.25780454 -0.069123276 0.33373705 -0.031949613
0.18543738 0.028124182 -0.17139763 -0.2614287 -0.007968607 0.29951754 -0.054785088 0.17733659
-0.39110556 -0.2759243 0.2754585 -0.8712862 -0.595142 0.42359298 -0.21228647 -0.46531054
0.14360018 0.8931247 0.34251702 -0.053340174 0.051350284 -0.26032677 -0.25452405 0.15340802
-0.1132091 -0.28407714 -0.5087167 0.7462439 0.26390687 0.0764408 0.40219963 -0.09495402
-0.10870063 -0.03460092 0.23477805 -0.39402148 -0.45139053 0.41578212 0.7840401 0.36729503
00000000: d90f 0bbe c1d6 143f 0da7 063f 4662 fb3c
00000010: 73c7 c63d ebbc 9e3e 06dd 0dbf 43e0 9cbe
00000020: 9fc8 98be ef72 1c3e 1d7f 94be 8acb 6a3e
00000030: edf7 6bbe 8f8c a33e 235a 8b3e 1e54 9dbe
00000040: 5408 c0be 9e7e a03e 3490 fdbe f2ee 03bf
00000050: 7cdd 3a3e a075 c4be c756 ecbe 84c9 383f
00000060: 84cb 003e d56c a7bd b89d 6d3e a791 01bf
00000070: dbd5 2dbf c99f 7bbc 0971 b83e 652b bcbe
00000080: 8bf9 e9be 968e a73e 8463 ebbe 053b 20bf
00000090: 798a 923e bf82 d3bd 2b38 903d 09b3 27be
000000a0: 0fed bbbe 06ac 70bd 5125 683d 87e9 153e
000000b0: 714c 9abe 10d0 13bf 4e63 d0be df03 0d3f
000000c0: 291d e63e 3190 813e 3eb1 9b3e ecc4 1abf
000000d0: 5385 77be 1a82 43be c161 e3be 7fef a63e
000000e0: d487 803f 3d50 f2be 4393 d73d cebf 07be
000000f0: 7d07 77be 7c47 13be 8c88 4c3e 2549 bc3e
00000100: 7ba1 17be 5b29 b9bc 4c06 db3e 7f5b 983e
00000110: b930 d53c addd f93d d890 d0be cec5 e8be
00000120: 60af 55bf 1b71 fabe beb4 933e dfac 0ebf
00000130: 8c02 593d 26c2 85be f8b3 bbbd 0fbd d9be
00000140: 89b1 8c3e b333 80be 1694 aabd a6b2 f53e
00000150: 58db dfbc 1558 9a3d d9e0 3ebf 973b 8d3d
00000160: 5b66 8d3d b46d dd3d ac5b 6bbe ad56 85be
00000170: 928d 96be 0c09 193e 1847 e23d ce3b 9a3d
00000180: 37bd 5f3d d802 95be 215c f1bd 45e2 36be
00000190: e176 56bd fc5c 97bb 55cd bebe fa61 d1be
000001a0: 7256 abbe 1b38 4a3e ef5f 14bf 7563 11bf
000001b0: 7ee8 a8be 0b54 3e3e fe26 bc3e 7993 d5ba
000001c0: 18e7 8a3c 9a0d 90be cc8c 003f abef 32bb
000001d0: dca7 64bd fc79 a2be e077 05bf 6463 6fbe
000001e0: 292a 16be efe4 51bf 6ede 093d a4b3 1d3f
000001f0: 4563 eb3e f0bb 623e c8e9 ac3e f0ff da3d
00000200: 74fc 92be babc 3ebe 8628 bebd 3553 63be
00000210: 4536 b7be ced0 14bf cf70 1f3f d472 d83e
00000220: 49a9 863d bb61 113f 0d55 89be 48eb 56be
00000230: 6a06 0f3e f553 893d 9819 3cbf 00e0 56b9
00000240: de54 bcbd 33b8 98be f8ee 81be e0e3 c1bc
00000250: c809 70be 6856 b7bd fbb2 8bbe 8251 34be
00000260: 78dd 7f3e fc79 783e 49fa 973d 50b3 ed3e
00000270: 9aa4 84be 6055 d4bd ba72 6b3e a050 64bf
00000280: 7e43 30be af35 0fbf 05b3 ae3e 4723 e3be
00000290: ab44 3dbf caa9 393f 978f c13c 4c83 853d
000002a0: 3659 c7be d80d ad3e fee5 db3d 6bd6 423e
000002b0: f2cb 383e 55d0 cfbe 52b5 fabe 92db cdbe
000002c0: a19e 4cbe c4d2 843c 2363 293e 5ebc 1bbf
000002d0: fee4 013e 632a 20bf d052 b63e 537b 3cbf
000002e0: e385 6fbf 9b5a 0fbf 93ba 6f3e cd63 dfbe
000002f0: 51e5 afbe e521 043f 5d4f 8abe b209 edbb
00000300: 9af6 073e 6297 c0be 452f b4be 89d5 eb3d
00000310: bf7b 6dbe e64d 13be 7698 45be e158 d4be
00000320: 5066 713f bc19 863e dcd7 8dbe 8a43 aabd
00000330: a10e 05bc 5ab4 ad3e 55de f2bc ff2e f6be
00000340: 976e bfbe af42 12bf adfe 8e3e 9eb5 963e
00000350: f5fe 83be 8190 8dbd 95df aa3e 99dd 02bd
00000360: 4ce3 3d3e af64 e63c dc82 2fbe fcd9 85be
00000370: c38e 02bc 5d5a 993e 5466 60bd b997 353e
00000380: fd3e c8be f345 8dbe e608 8d3e 9d0c 5fbf
00000390: 3a5b 18bf 2ee1 d83e a061 59be 2f3d eebe
000003a0: ed0b 133e d2a3 643f 645e af3e 3a7b 5abd
000003b0: ad54 523d 8d49 85be fa50 82be fe16 1d3e
000003c0: 2cda e7bd 8f72 91be 423b 02bf d709 3f3f
000003d0: cd1e 873e ff8c 9c3d 1ced cd3e 4177 c2bd
000003e0: 709e debd b2b9 0dbd a869 703e 2fbd c9be
000003f0: a91c e7be 65e1 d43e dab6 483f 180e bc3e

linear1.bias f4 [256]
-0.1595722 -0.04653278 -0.2907037 0.3202744 0.6648786 -0.28574255 0.018631142 0.021194085
-0.33733848 0.08501768 0.0025413805 0.61713815 0.08839256 -0.24961922 0.028526269 -0.045559373
0.16412564 -0.36891454 -0.014022371 -0.26912773 -0.14229876 0.051232938 -0.41505617 -0.16939147
-0.23482507 -0.33203107 -0.2571203 -0.21577212 -0.22244461 -0.18573742 -0.2932375 0.05490732
-0.0099627795 -0.14591941 -0.19760358 -0.20455915 -0.30300412 -0.03918937 -0.17708386 -0.3188745
0.042258903 -0.103634536 -0.17269307 -0.14963558 0.31786314 0.044028867 -0.23619032 0.054290213
-0.055912837 0.4106465 -0.2255142 0.23112978 -0.3500354 -0.30089986 -0.17269456 -0.1310381
-0.46591467 -0.34802115 -0.2130481 -0.09239165 -0.27166012 0.23480104 0.22579758 0.089723
-0.0046870494 -0.24426839 -0.15010945 0.14302622 0.09780496 -0.18442427 -0.3450414 -0.2836235
-0.10251916 -0.3016582 -0.23027268 -0.3814698 0.12006859 0.9204142 -0.0081784185 0.45296693
0.4656761 -0.29814422 -0.23457003 -0.122393236 -0.21448997 -0.044215746 -0.29436877 -0.07461561
-0.11328874 -0.2107857 0.7123796 -0.40022293 -0.27796677 -0.014276621 -0.037147634 -0.08035086
-0.06661748 -0.41843855 -0.47511858 0.16306414 -0.105714016 -0.2527331 -0.059653826 0.49629658
-0.47443378 -0.12918739 -0.066381864 -0.40660137 0.00053985923 -0.08464307 -0.2393227 0.00079534587
-0.10615834 -0.19282809 -0.28894886 -0.242907 -0.14060624 -0.2573252 -0.10864701 0.31451026
-0.3071703 -0.08343427 0.037910018 -0.118627995 0.028113224 -0.25264263 -0.5419578 -0.22500171
-0.32943472 -0.086377256 -0.01666246 -0.21375765 0.31766507 -0.18542393 0.088621944 -0.20136996
0.081106916 0.35848382 0.09464237 -0.42692468 -0.16594008 -0.036866322 0.16182289 0.3746208
-0.12980932 -0.21932003 -0.1341758 -0.06411597 -0.08939872 -0.17234647 -0.31617683 -0.17944515
-0.11083893 0.39329907 -0.07279085 -0.4133531 0.014951454 -0.15131953 0.25771016 -0.049155235
-0.098880835 -0.16804981 0.004743637 -0.00013920048 -0.07216429 -0.3200355 -0.10353906 -0.048403554
-0.13099821 -0.03942348 0.04149774 -0.013782761 0.22334732 0.08238214 0.13963467 -0.22972155
-0.092652865 -0.29836097 0.5237809 -0.28358954 0.058744676 -0.091626376 -0.49843693 -0.10577705
-0.30791652 -0.13480334 0.013518851 -0.2592072 -0.34835312 -0.3427705 -0.026905432 -0.37407237
0.066750005 -0.01460723 -0.1655163 -0.20535748 -0.13123818 0.12088045 -0.016510984 -0.29131064
-0.15885521 -0.26386827 0.3611797 1.1455835 -0.22832794 0.06349313 -0.34998882 0.17568204
-0.21876724 -0.15947586 -0.32708433 -0.37973893 -0.099614866 -0.4043768 -0.32477206 0.1002131
-0.29960164 0.06331368 -0.16366236 -0.293348 -0.029747112 -0.3438712 -0.1642059 0.08560491
0.073830955 -0.4021425 -0.21021275 -0.42876548 -0.18906452 -0.15863842 0.3406602 -0.1761915
-0.035616893 -0.43387222 -0.23152915 -0.14267604 -0.20582591 -0.24542788 -0.03926033 -0.062121898
-0.114464626 -0.2616382 -0.13821724 -0.34428066 -0.23461896 -0.24355629 -0.234637 -0.21804565
-0.040370405 0.12489625 -0.15165302 -0.2842683 -0.28400072 -0.28789786 -0.16775863 -0.08804638
00000000: e566 23be 2899 3ebd 1ed7 94be 02fb a33e
00000010: 7c35 2a3f d94c 92be 56a0 983c 389f ad3c
00000020: a1b7 acbe c01d ae3d 4a8d 263b c4fc 1d3f
00000030: 2907 b53d 2e9c 7fbe ecaf e93c 779c 3abd
00000040: 8d10 283e 5ee2 bcbe 16be 65bc 1ccb 89be
00000050: c4b6 11be a1d9 513d 3e82 d4be f574 2dbe
00000060: fc75 70be faff a9be 46a5 83be 5ef3 5cbe
00000070: 85c8 63be f331 3ebe 3a23 96be 7fe6 603d
00000080: ed3a 23bc e66b 15be 9858 4abe f477 51be
00000090: 5b23 9bbe 0885 20bd 7955 35be 8543 a3be
000000a0: ac17 2d3d 583e d4bd 74d6 30be 123a 19be
000000b0: f5be a23e 9d57 343d e0db 71be 6a5f 5e3d
000000c0: dc04 65bd 4240 d23e 32ed 66be 49ad 6c3e
000000d0: d737 b3be 8c0f 9abe d8d6 30be da2e 06be
000000e0: 5e8c eebe d42f b2be 4829 5abe d537 bdbd
000000f0: 0917 8bbe af6f 703e 7b37 673e b1c0 b73d
00000100: d295 99bb 7e21 7abe 4bb6 19be 7775 123e
00000110: f84d c83d b7d9 3cbe 44a9 b0be 1937 91be
00000120: 91f5 d1bd f272 9abe 9acc 6bbe 0250 c3be
00000130: 85e6 f53d 44a0 6b3f c6fe 05bc 48eb e73e
00000140: 196d ee3e 5ca6 98be 2033 70be 4ea9 fabd
00000150: 42a3 5bbe 921b 35bd 81b7 96be 12d0 98bd
00000160: ed03 e8bd 35d8 57be 825e 363f 05ea ccbe
00000170: a951 8ebe 7de8 69bc 1e28 18bd fe8e a4bd
00000180: bf6e 88bd 943d d6be be42 f3be 49fa 263e
00000190: 9780 d8bd 3c66 81be 9257 74bd 961a fe3e
000001a0: fce8 f2be b349 04be 37f3 87bd 0e2e d0be
000001b0: 5785 0d3a 5959 adbd 0311 75be c27e 503a
000001c0: 8b69 d9bd ba74 45be 1bf1 93be 9dbc 78be
000001d0: 15fb 0fbe 21c0 83be 5382 debd 7d07 a13e
000001e0: 6d45 9dbe 96df aabd 8947 1b3d 3cf3 f2bd
000001f0: b44d e63c 605a 81be bfbd 0abf d966 66be
00000200: abab a8be 8fe6 b0bd b67f 88bc 49e3 5abe
00000210: ffa4 a23e c5df 3dbe 6c7f b53d ed33 4ebe
00000220: 621b a63d 318b b73e dcd3 c13d df95 dabe
00000230: 32ec 29be 2401 17bd e6b4 253e 4cce bf3e
00000240: bcec 04be 6e95 60be 6265 09be 3c4f 83bd
00000250: ad16 b7bd 987b 30be eee1 a1be 78c0 37be
00000260: 85ff e2bd 7f5e c93e 5f13 95bd 04a3 d3be
00000270: f1f6 743c 82f3 1abe 96f2 833e 0057 49bd
00000280: 0982 cabd 4015 2cbe 8370 9b3b 58f6 11b9
00000290: dfca 93bd b1db a3be 490c d4bd ce42 46bd
000002a0: 6524 06be 847a 21bd 89f9 293d 17d1 61bc
000002b0: 29b5 643e f8b7 a83d 64fc 0e3e 203c 6bbe
000002c0: c9c0 bdbd c5c2 98be 8116 063f a632 91be
000002d0: 429e 703d 9ca6 bbbd 2033 ffbe a3a1 d8bd
000002e0: 3ca7 9dbe e309 0abe 2c7e 5d3c ceb6 84be
000002f0: 575b b2be 9d7f afbe c868 dcbc 6a86 bfbe
00000300: 3ab4 883d 2a53 6fbc 1b7d 29be 3b49 52be
00000310: 4d63 06be 2b90 f73d 0b42 87bc ab26 95be
00000320: f1aa 22be be19 87be 8cec b83e 7ba2 923f
00000330: cdce 69be b008 823d bc31 b3be fee5 333e
00000340: 8504 60be a44d 23be 9977 a7be 246d c2be
00000350: e102 ccbd 7a0a cfbe 8648 a6be 873c cd3d
00000360: 6365 99be 9aaa 813d 1b97 27be b631 96be
00000370: 37b0 f3bc e30f b0be 9725 28be a151 af3d
00000380: af34 973d 9fe5 cdbe 0342 57be 2687 dbbe
00000390: 219a 41be 1c72 22be 046b ae3e 8b6b 34be
000003a0: 05e3 11bd 8024 debe fa15 6dbe ab19 12be
000003b0: 07c4 52be 7251 7bbe 71cf 20bd 8873 7ebd
000003c0: 6e6c eabd 71f5 85be d288 0dbe 8e45 b0be
000003d0: f43f 70be d266 79be af44 70be 5c47 5fbe
000003e0: 705b 25bd 9bc9 ff3d ee4a 1bbe 9d8b 91be
000003f0: 8b68 91be 5967 93be ebc8 2bbe a951 b4bd

linear2.weight f4 [3, 256]
0.111780226 -0.19220059 0.33937716 0.15317188 0.4546071 -0.022183636 -0.2717221 0.13134572
-0.030701257 0.28059453 -0.6070831 0.5083437 0.4145299 -0.056999557 0.46734598 -0.554016
0.41573334 0.052297235 0.2314679 -0.11538614 -0.5344331 -0.022438437 0.15283914 -0.08881034
-0.002871873 0.006310155 -0.060384814 0.0057634353 0.28204674 0.2750071 -0.06462893 -0.4310726
-0.7088121 -0.26153785 -0.35777184 -0.08895915 0.015702236 -0.8663136 -0.29126614 -0.092844464
-0.06764277 -0.06130588 -0.0059899134 -0.05587178 0.51483417 0.3608422 -0.18553261 -0.61405313
-0.017110534 0.069835685 -0.21102233 0.26256272 -0.5427922 -0.29529592 -0.03443977 0.0047302763
0.02728535 -0.53008443 0.24845882 -0.674116 -0.010204664 0.25329348 0.35768384 0.20533359
0.045570634 -0.14012627 -0.1563723 0.14225337 0.3254453 0.06024574 -0.27602437 -0.14986587
-0.20615093 -0.053914085 -0.009428096 -0.050307777 0.2218965 0.47754246 -0.2625951 0.5791111
0.29960257 -0.02592633 0.021032838 -0.22370487 -0.14671174 -0.43693992 -0.026339246 -0.51073766
-0.0016597017 0.0035917258 0.6852107 -0.12639618 -0.012198441 -0.5060219 0.0959781 0.4454074
0.24858183 -0.11637452 -0.023447108 -0.6952352 -0.42310694 -0.10090626 -0.4548381 0.363912
-0.04207697 -0.031088023 0.13657577 -0.10075203 0.16303186 0.40214673 -0.072241366 -0.46481097
-0.0853478 -0.54871154 -0.036670536 -0.21757244 -0.37787363 0.15611157 0.019953448 0.23672259
-0.61149734 0.10216514 0.02092588 -0.36150953 0.14697139 -0.32256714 -0.2051822 -0.096873
-0.22652565 -0.37162745 -0.25465232 -0.7240213 0.5490332 -0.3221786 -0.031931076 -0.08962936
0.41737914 0.40407607 -0.61720186 -0.0473697 -0.039130867 0.1444968 0.334648 0.43912208
-0.0050903466 0.1260432 -0.18073697 -0.008265113 0.35748175 0.41293165 0.039889935 -0.16775611
0.01962009 0.15686259 0.6632886 -0.031117033 -0.27597234 0.05564027 0.18358842 -0.11447312
0.31795806 -0.16369076 -0.71404135 0.24050342 0.1157717 -0.012033712 -0.20539781 0.38173613
0.059803367 0.07841503 -0.21938756 0.4718418 0.058526427 -0.21622229 -1.4516644 -0.5685161
0.36126304 -0.29373044 0.34846875 0.076217376 -0.49848247 -0.8403078 0.008677896 0.12324623
-0.028669627 -0.1180315 0.3264743 -0.000538891 0.0355861 0.0028998875 -0.5592063 -0.02589423
0.23972464 0.16720201 -0.3760913 -0.7338624 0.3375742 0.100843735 0.52664953 -0.06474068
0.007624871 -0.43781438 0.65370584 0.39931604 -0.05239565 -0.59835386 -0.13895334 0.23120356
-0.251299 -0.2499942 -0.05110428 -0.03089101 0.06261212 -0.08390807 0.021471826 0.09889017
0.0007179925 -0.39281663 -0.5062347 -0.18915375 0.63863015 -0.04638731 0.014673971 -0.13137336
-0.4889802 -0.093386315 -0.020154616 -0.35628453 -0.010840542 0.07789648 0.27301148 -0.1710359
-0.20065652 -0.030032903 -0.305047 -0.4263016 -0.022646513 0.023618663 -0.079496935 0.25916073
0.00051909743 -0.2375618 -0.15275635 -0.0024129527 0.08769399 -0.004666005 -0.816141 0.25356072
0.13704386 0.06638823 0.041443605 -0.06513101 0.073259704 -0.29702878 -0.07973299 0.748196
00000000: 08ed e43d 3bd0 44be d8c2 ad3e 17d9 1c3e
00000010: 43c2 e83e 75ba b5bc 291f 8bbe 7e7f 063e
00000020: 3481 fbbc 16aa 8f3e cc69 1bbf d022 023f
00000030: 433d d43e 5e78 69bd f947 ef3e fed3 0dbf
00000040: 00db d43e a035 563d ec05 6d3e 924f ecbd
00000050: 9cd0 08bf d0d0 b7bc dd81 1c3e 32e2 b5bd
00000060: 0936 3cbb 6bc5 ce3b 1156 77bd 33db bc3b
00000070: 6e68 903e bbcd 8c3e 2c5c 84bd 8cb5 dcbe
00000080: b674 35bf 4ae8 85be df2d b7be 3730 b6bd
00000090: faa1 803c bac6 5dbf d620 95be 3d25 bebd
000000a0: 4b88 8abd e01b 7bbd 0947 c4bb cfd9 64bd
000000b0: 2ccc 033f 4fc0 b83e 43fc 3dbe 9632 1dbf
000000c0: 642b 8cbc 0306 8f3d 3d16 58be 9f6e 863e
000000d0: 6ef4 0abf 0731 97be b710 0dbd 6f00 9b3b
000000e0: 8785 df3c 9db3 07bf fd6b 7e3e de92 2cbf
000000f0: 7731 27bc afaf 813e 5622 b73e f842 523e
00000100: 46a8 3a3d 437d 0fbe 0f20 20be deaa 113e
00000110: c4a0 a63e 3dc4 763d 1153 8dbe 7076 19be
00000120: 3b19 53be 04d5 5cbd 4d78 1abc 870f 4ebd
00000130: d638 633e 7280 f43e dd72 86be a040 143f
00000140: 8265 993e 7463 d4bc 0f4d ac3c e412 65be
00000150: 9a3b 16be 97b6 dfbe 67c5 d7bc b4bf 02bf
00000160: 598a d9ba 2963 6b3b f869 2f3f 006e 01be
00000170: f8db 47bc a78a 01bf 2b90 c43d 700c e43e
00000180: 3c8c 7e3e c455 eebd 2614 c0bc effa 31bf
00000190: 79a1 d8be f1a7 cebd 8ae0 e8be ac52 ba3e
000001a0: e758 2cbd 4fac febc 85da 0b3e 1557 cebd
000001b0: d3f1 263e 2de6 cd3e 48f3 93bd b4fb edbe
000001c0: d4ca aebd 5c78 0cbf d833 16bd 4fcb 5ebe
000001d0: a778 c1be b6db 1f3e 6a75 a33c 6867 723e
000001e0: 178b 1cbf f53b d13d c06c ab3c c717 b9be
000001f0: ab7f 163e 8527 a5be 481b 52be 5a65 c6bd
00000200: 57f6 67be f445 bebe ca61 82be 7659 39bf
00000210: 718d 0c3f 98f4 a4be 29ca 02bd 998f b7bd
00000220: b8b2 d53e 0fe3 ce3e f100 1ebf bb06 42bd
00000230: b047 20bd f8f6 133e fc56 ab3e 9cd4 e03e
00000240: eccc a6bb 7811 013e 1d13 39be 666a 07bc
00000250: d907 b73e c76b d33e a163 233d 42c8 2bbe
00000260: 50ba a03c 96a0 203e 48cd 293f 26e9 febc
00000270: 3f4c 8dbe 0de7 633d 9afe 3b3e e270 eabd
00000280: 66cb a23e 8d9e 27be 6acb 36bf 8746 763e
00000290: b719 ed3d 0c29 45bc ce53 52be eb72 c33e
000002a0: 60f4 743d 0f98 a03d 22a7 60be 4095 f13e
000002b0: 68b9 6f3d 6069 5dbe 24d0 b9bf 458a 11bf
000002c0: 78f7 b83e d663 96be 7f6a b23e db17 9c3d
000002d0: 1839 ffbe 691e 57bf bc2d 0e3c 8568 fc3d
000002e0: 91dc eabc 80ba f1bd a427 a73e 5d44 0dba
000002f0: bbc2 113d 0a0c 3e3b 2528 0fbf 2320 d4bc
00000300: 607a 753e 0137 2b3e 0a8f c0be 68de 3bbf
00000310: 87d6 ac3e 2987 ce3d 81d2 063f c396 84bd
00000320: 0eda f93b 3529 e0be 4459 273f 2773 cc3e
00000330: d29c 56bd b82d 19bf c949 0ebe a0c0 6c3e
00000340: 43aa 80be 7bfe 7fbe b952 51bd 250f fdbc
00000350: c83a 803d ffd7 abbd afe5 af3c ee86 ca3d
00000360: a937 3c3a 431f c9be 9998 01bf 85b1 41be
00000370: 447d 233f 9f00 3ebd 186b 703c bd86 06be
00000380: 9d5b fabe 5341 bfbd 4b1b a5bc ed6a b6be
00000390: 879c 31bc 3188 9f3d 29c8 8b3e 0924 2fbe
000003a0: e778 4dbe 9007 f6bc 1f2f 9cbe 3444 dabe
000003b0: 2e85 b9bc ed7b c13c 4acf a2bd b7b0 843e
000003c0: 0a14 083a 6743 73be 296c 1cbe a122 1ebb
000003d0: e898 b33d 49e5 98bb 9eee 50bf b6d2 813e
000003e0: 3a55 0c3e 8df6 873d c5c0 293d 6863 85bd
000003f0: 2f09 963d 2814 98be 0d4b a3bd c689 3f3f

linear2.bias f4 [3]
0.41282222 0.16380474 0.20088522
00000000: 6f5d d33e 6ebc 273e dbb4 4d3e
