model/model.pth (torch, 16799 bytes, 4 tensors)

linear1.weight f4 [256, 11]
00000000: c1b8 fa3e 3405 133d 5788 81bf 20d4 9bbd
00000010: a896 10bf 5055 323e 1a7b 89be 1bfc 593d
00000020: 3945 073f 4a8e 34be ea91 623e e1c4 8fbe
00000030: 53f9 5dbc f46b e53c f163 c93e 8257 b63e
00000040: 4c61 a1bd 2d90 d9be f312 0cbf 5b29 0abf
00000050: 5b16 16bc a4f5 913e 8095 af3e c8f7 283d
00000060: 5739 46be 2b98 2f3c 313e dabe 0170 7a3d
00000070: 52b5 ffbe d029 28be 8876 96be 3e6c aebe
00000080: 512c b73e 44f3 0ebe 1e87 c33e bf4a 8ebe
00000090: 704b 8a3e 485d bcbc bb92 8c3e 7878 933e
000000a0: 7567 89be d6c1 f9be 68f4 c4bd 837d 7fbd
000000b0: dac1 843e 7a2a 613e 73ce e63c c068 04bf
000000c0: 8cfd 653e 3fe0 3cbe e1a2 a53e 9e39 f43e
000000d0: efc4 99be 9604 ef3d a95b e5be 7d87 bebc
000000e0: e325 2dbf 1c84 c23e ed4a edbc febd 523e
000000f0: 5d38 203e ca64 29be eab5 edbe 7245 11bd
00000100: ee98 49bd 51c2 bf3b 0946 0bbd 5b49 b3be
00000110: 37e7 543e 8ad4 8ebe 6ee8 cbbb 7888 a83d
00000120: 7cfd 8dbe 38f7 3f3c 0391 72be 46fd 833b
00000130: 8233 0dbe 094f 86be f505 fabe 5d50 20bd
00000140: cad7 18be 6b28 dcbe a471 bd3e 3dd1 083e
00000150: 7d45 753e 3604 063f ad3d 92be 7390 32bd
00000160: d2e7 bb3e d7f0 f23e 627f a4be bef5 7cbe
00000170: 39bc 673e 0613 29be 9c37 04bf 3731 793e
00000180: d449 a6be f0e9 3b3e 93cd dd3e 6df0 353d
00000190: 51e8 193f f819 85be 2fef c8bd b640 99be
000001a0: 39c5 bd3e 5173 543d 1a41 9d3e c0cc f63e
000001b0: 17d4 eebd 935e 5b3d 4aa3 053f 833a 78bd
000001c0: 5889 d3be 96a7 ddbe 264d e43d 0011 ed3e
000001d0: 754e e1bd d86e cb3e 16bb 8abe 1f53 d9be
000001e0: 8324 473e 1b78 01bd 2536 a0be 20c7 8f3c
000001f0: 9c6a 92be 9c53 313e d552 cb3d 1820 913e
00000200: e600 7b3e 420f afbe 57c1 c5be 7eea c0be
00000210: 3b9d 7d3c 4257 09bf f79e 883d 3203 d13d
00000220: d2b0 c2be 1729 db3d 153a 673e 99a7 d8bd
00000230: a570 42bf ed10 5b3d 73e6 a8bb 9301 ca3c
00000240: f5ef 1e3d 495c 91be e539 9cbe d234 1c3e
00000250: d4a8 e53e 3a7e 263e b2cb dd3e d154 b4be
00000260: dc16 92be 28a3 a7bc 38e6 d9be c7ed 2b3f
00000270: 1b72 5fbe aba1 343e dc50 21be 2adb c13e
00000280: da38 523e b3d7 743d adbf e8be d738 283e
00000290: 6211 533e 5283 063e 50cc 20be 4487 87be
000002a0: b818 d53e a3e8 9bbe c875 4fbe ac37 93be
000002b0: c3ca bfbe c2f8 13be 5cfe a53e 7ebc a8be
000002c0: 5717 163f 5dfc 10bf dc8c 043f 4d78 ca3d
000002d0: a4c0 903e 07ed 77bd cecf cd3e b0a0 283e
000002e0: 2eec 7dbd c0ef 473e 9741 31be 7719 0ebf
000002f0: 7341 e73e 62d7 c33e 8302 2a3d 26c8 6cbd
00000300: ccd1 803e 77db 8f3e 8516 ffbc 7e36 8d3e
00000310: bda5 a23d 7c1e 7dbe 6c16 cc3e a7ad d7bd
00000320: b6c4 c83e 400f 50be f0d5 97be 9ebc 65bd
00000330: e4a0 9fbe cf6c ee3e 4e25 ef3e 901f 1f3e
00000340: c5d9 cd3e 64ce 8c3e f590 1f3d ab67 573e
00000350: 6a2b 97be 9d1c fabd 7083 a7bd adb9 c4bd
00000360: 3e2c e13e b550 b03e dea3 083e a3db 5c3e
00000370: d5b6 1a3e b977 563e 435e b63e 8d85 eabd
00000380: 8bf6 a9be 8eba 41be fcee 9fbe 706e 303b
00000390: 0e64 703d cdc1 edbd aae4 803d 3692 16be
000003a0: f1de 8f3d 0198 a2bc 2c4b 7cbe f346 26be
000003b0: db10 023d cae2 553d 0090 4bbd 8b3c 9f3d
000003c0: 6025 92be 0e96 f03d 9988 493e f75e ca3e
000003d0: 6cd1 563b 4b13 babd 2975 6b3c 1234 74be
000003e0: a425 82bd 93ea cc3e 7510 003e e5dd 583e
000003f0: de9f 863e 4476 a1be 07f9 54bd e93e f0be
0.4896908 0.035893634 -1.0119733 -0.07608819 -0.56479883 0.17415357 -0.26851732 0.053218942
0.5284 -0.17632404 0.22125974 -0.28079894 -0.013548213 0.028005578 0.39334062 0.35613638
-0.07879886 -0.4249281 -0.54716414 -0.53969353 -0.009160603 0.2850772 0.34293747 0.041251928
-0.19357811 0.010717432 -0.42625573 0.06114197 -0.49943024 -0.164222 -0.29387307 -0.34066957
0.35775998 -0.13959986 0.38189024 -0.27791402 0.2701068 -0.022993699 0.27455696 0.28802848
-0.26836744 -0.48780698 -0.09616929 -0.062375557 0.25929147 0.2198886 0.028174615 -0.51722336
0.22460002 -0.18444918 0.3235083 0.47700208 -0.3003306 0.116707966 -0.44796494 -0.023257965
-0.67635936 0.37991416 -0.028966391 0.20580289 0.15646501 -0.16542354 -0.46427852 -0.03546662
-0.04921811 0.0058520217 -0.034002338 -0.35016903 0.20791326 -0.2789653 -0.006222776 0.08229154
-0.27732456 0.011716656 -0.2368813 0.0040279953 -0.1378918 -0.26232174 -0.4883267 -0.03913914
-0.14926067 -0.42999586 0.37000763 0.13361068 0.23952289 0.52350175 -0.2856268 -0.04359479
0.36700302 0.4744937 -0.32128435 -0.24703118 0.22630395 -0.16511163 -0.51647353 0.2433518
-0.324782 0.18350959 0.43320903 0.04441874 0.6012011 -0.25996375 -0.09811246 -0.29932183
0.3706453 0.051867787 0.3071373 0.48203087 -0.11661547 0.05355699 0.52202284 -0.060602676
-0.41315722 -0.4329192 0.111475274 0.46302032 -0.110012926 0.39733005 -0.2709586 -0.4244623
0.19447522 -0.031608682 -0.3129131 0.017551005 -0.28596961 0.1731705 0.09927908 0.28344798
0.24512061 -0.34191328 -0.3862407 -0.37678903 0.015479381 -0.5364877 0.06670945 0.102056876
-0.38025528 0.10701197 0.2258075 -0.10578842 -0.7595313 0.05348294 -0.005154425 0.024658954
0.03880306 -0.2839072 -0.3051292 0.15254524 0.44855368 0.16259089 0.4331947 -0.3522096
-0.28533065 -0.020463541 -0.42558455 0.67159694 -0.21820872 0.17639796 -0.15753502 0.3786252
0.205295 0.05977602 -0.45458737 0.16427933 0.206121 0.13136032 -0.15702939 -0.26470387
0.4162042 -0.30450925 -0.20259774 -0.28753412 -0.37459382 -0.14450362 0.32420623 -0.32956308
0.58629364 -0.56635076 0.51777434 0.09886227 0.28271973 -0.06052878 0.40197605 0.16467547
-0.061992817 0.19525051 -0.17310177 -0.55507606 0.4516712 0.38250262 0.0415063 -0.057808064
0.25160062 0.28097126 -0.031138668 0.27580637 0.07941768 -0.2471866 0.39860857 -0.105311684
0.3921258 -0.20318317 -0.2965541 -0.056088082 -0.31177437 0.4656739 0.4670815 0.15539384
0.40205207 0.27501214 0.0389566 0.2103564 -0.2952531 -0.12212489 -0.081793666 -0.09605727
0.43979067 0.34436575 0.1334376 0.2156816 0.15108807 0.20944108 0.3561879 -0.11451254
-0.3319591 -0.18918821 -0.31237018 0.0026921295 0.05868917 -0.1160923 0.06293614 -0.14704213
0.070249446 -0.019847872 -0.24638051 -0.16238002 0.031754356 0.052218236 -0.049697876 0.077752195
-0.2854414 0.11747371 0.19681014 0.39525577 0.0032778634 -0.09085711 0.014371195 -0.23847988
-0.06354836 0.40022716 0.12506278 0.21178396 0.26293844 -0.31535542 -0.051995303 -0.46922997

linear1.bias f4 [256]
00000000: a79b 37bb 1526 b03d 7f84 a13d 7a41 fb3e
00000010: f49b 8d3d b201 c43e 9c41 c8bc 0a59 f7bd
00000020: 4213 69bc e844 5bbe 0a40 2ebd 125b 50bd
00000030: 7ff1 133f 0c7b 39be 1d8b 053e 0c95 91be
00000040: 3f42 81be 131a e13e 20b6 46be 1a50 94be
00000050: 874d 77be 3383 a4be 2632 cabe 251c 103e
00000060: b7f1 b8be 7957 ecbe 9c6c 8d3e 170d d23e
00000070: 4a85 96bd 7a4d d0be cb99 6fbe 264d abbd
00000080: b9f9 dc3d 08b2 5b3e 7c6f ba3c af12 46be
00000090: 378a 20be c1b4 39be dbb4 bb3c b0c4 7dbe
000000a0: 5b92 a3bd ef1d 193d edde eebd 61da efbc
000000b0: f2f7 793d 41ab b2bd 9062 d3be 16a8 3e3e
000000c0: f684 debd 1478 1fbe 9705 08be 4473 b63e
000000d0: a75e 16bf 5aee 33be e13c 15be 4150 343f
000000e0: 5cec fcbe 5ade 2b3f 1bcc 43be cbaa 2ebe
000000f0: 50e9 11be 1dd1 15be 9ea6 233f 44d5 9dbe
00000100: 2c96 c03c b648 fe3b 7eb7 003f 7f93 9fbe
00000110: 5c32 b9be e03c 893d 6608 97bd ba1e 7bbe
00000120: 881f bf3d 8494 173c c235 273e 3012 9abe
00000130: 3378 24be 907c 90bd a25e b93b b0df 72be
00000140: 07ea f13b d1a1 8ebd c1d4 fb3c a848 d6bc
00000150: 4bfc bcbd 5e7f 34be 78e8 4b3e f31b 19be
00000160: bd67 a0be effd b7be e52d 6abe 8894 8abe
00000170: 3ab4 343d 55c2 3fbe de22 8cbe 1a56 aebe
00000180: 05fa a1be 4af9 523e 41d7 cf3c 3ead 4ebe
00000190: fcf3 7d3e 31e5 debd b48f 34be 2a6e 05be
000001a0: 41b0 b63d 5a61 8bbe d67f 243d 126b 493c
000001b0: 08da 9bbe 1cd8 f3bd 25ad af3d fc6b a9be
000001c0: 6627 183f ff60 a2bd a0a2 1cbe 9a64 a53d
000001d0: df24 463f b85c a8be a366 0ebd 79d9 82be
000001e0: 5f5c acbe d3d4 27bd 450d babe f753 703d
000001f0: 69f0 1cbe e1c0 aabd f1e6 d7bd 23cb ec3d
00000200: deaf 17be c955 1e3d 0206 623e b2a4 0ebd
00000210: ae40 72be ff58 413e f603 57be ad1f f4bd
00000220: b5c7 0f3f e134 e43e 05ff 793d c8c9 c3be
00000230: d0fa 82bd 9b27 31bc 0c3f 84be eb61 76be
00000240: 34de 72be 898b 923e 4b82 75bd 5d06 40be
00000250: 0a16 bbbe f0ee 71be 0add 9bbd 71b3 133f
00000260: e326 72bd ba6a 90bd 8447 c6be d9ce babd
00000270: 7764 a93c e7de c4bd fb11 403e af6e cb3e
00000280: 6ebd 81be d386 94bd 8018 753e f071 cebd
00000290: ca03 1bbc 0388 b0be b581 4c3e c5a0 75bd
000002a0: 6694 6f3e 28c5 203f 3a74 a0be 993a c7bd
000002b0: 3576 e2be 1e84 5abe 7dda 28be 8848 683c
000002c0: c22b 62be 96be e1bd bef3 a2be 7e75 1ebe
000002d0: aac9 8b3e 6da1 08be 2ca5 dbbe d8a2 81be
000002e0: 0937 c9bc 368a aebe 5110 12be 0a06 a4be
000002f0: fc35 5dbe 187e 54bc 9786 91be ec4d b1be
00000300: c4d7 03be 6877 3bbe 8300 8c3d 8c05 5abe
00000310: d2bf cdbc 0bf0 8dbe f870 7d3c 61cb 9ebd
00000320: 88fd 3bbe 458d c2bd bd14 91be 4c32 85bd
00000330: 3abe 97be ca4a e7bd a8a6 bdbe 5ae6 62be
00000340: 134b fbbd 4a1c 8abb e2a6 5dbe d4fc 32be
00000350: 3e83 d1bd 3505 95be 1a14 82be 0e1c 1f3d
00000360: 50c0 39be 9720 813e 0b11 92bd 1431 58bd
00000370: 7c26 bdbe 51df 093e 5e29 5dbe 077d 81be
00000380: 8899 67be e346 50bd c480 95be 0fab 993e
00000390: a5b1 a3be aed2 05be c7a2 85be 79d5 f9bd
000003a0: 2b17 9d3e 4d03 1c3e da5c 993d 9619 08be
000003b0: 0ecc 50bc b245 d43e a117 863d 2c26 f0bd
000003c0: 36f9 9c3d 5853 74be f174 063e c288 18be
000003d0: d1c8 39be 6dc3 b23d c210 6cbe 606f 91be
000003e0: 254d bb3d 25a8 a7be 91e6 b4be 004b d3bc
000003f0: 9008 16bd 120a 85be cfda 703c 4c3c 6abe
-0.002801636 0.086010136 0.078866 0.49073392 0.06914511 0.38282543 -0.024445347 -0.1207753
-0.014225783 -0.21413004 -0.04254154 -0.0508681 0.5779037 -0.18113345 0.13041349 -0.28434026
-0.25245854 0.43965206 -0.19405413 -0.28967363 -0.24150668 -0.32131347 -0.39491385 0.14073236
-0.36121914 -0.46160486 0.27621925 0.41025612 -0.073496416 -0.4068411 -0.23398511 -0.08364324
0.10789818 0.21454632 0.022758238 -0.19343065 -0.15677725 -0.18135358 0.022913387 -0.24782062
-0.079868995 0.037382063 -0.116636135 -0.029278936 0.061027475 -0.0872407 -0.41286135 0.18618807
-0.10865204 -0.1557315 -0.13283382 0.35634816 -0.5873818 -0.17571393 -0.14574005 0.7043496
-0.49399078 0.67136157 -0.19120829 -0.1705734 -0.14249158 -0.14630552 0.6392611 -0.3082677
0.023509108 0.0077601327 0.50279987 -0.31167218 -0.36171234 0.06701064 -0.07374649 -0.2452344
0.09332186 0.0092517175 0.163291 -0.30092 -0.16061477 -0.070550084 0.005657033 -0.23718143
0.0073826346 -0.06964458 0.030741097 -0.026157692 -0.092278086 -0.17626712 0.19912899 -0.14952068
-0.31329146 -0.35935923 -0.2286907 -0.27066445 0.04411719 -0.18726476 -0.27370352 -0.34050065
-0.31636062 0.20602909 0.025371196 -0.20183274 0.24800104 -0.108835585 -0.17632943 -0.13030306
0.089203365 -0.2722271 0.040160976 0.012293594 -0.30439782 -0.11906454 0.085779466 -0.33090198
0.5943512 -0.07928657 -0.15296412 0.08075829 0.7740001 -0.3288324 -0.03476585 -0.25556543
-0.33664224 -0.04097445 -0.3633825 0.058673825 -0.15326084 -0.0833757 -0.105420955 0.11562183
-0.14813182 0.03865603 0.22072604 -0.034825034 -0.23657486 0.18881606 -0.20997605 -0.11920104
0.56164104 0.44571593 0.06103422 -0.38239884 -0.06395495 -0.010812665 -0.2582935 -0.2406079
-0.23717576 0.28622082 -0.05993871 -0.18752427 -0.36540252 -0.23626304 -0.07610519 0.5769568
-0.059119117 -0.070516065 -0.38726437 -0.09121484 0.020677788 -0.09612828 0.18756859 0.39732882
-0.25339836 -0.07252278 0.23935127 -0.100803256 -0.009461353 -0.3447877 0.19971354 -0.059967775
0.23396453 0.62800837 -0.31338674 -0.097279735 -0.4423081 -0.21339461 -0.16489597 0.014177449
-0.22087005 -0.110226795 -0.31826586 -0.15474507 0.27302295 -0.13342829 -0.42899454 -0.25319552
-0.024562376 -0.34089822 -0.14264037 -0.32035857 -0.21602625 -0.012969516 -0.28422996 -0.34629762
-0.12875277 -0.18307269 0.06836035 -0.21291178 -0.025115881 -0.277222 0.015468828 -0.07753635
-0.18358433 -0.09499601 -0.28336135 -0.06503734 -0.2963732 -0.11293562 -0.3704121 -0.22158185
-0.12270179 -0.004214798 -0.21645692 -0.17479259 -0.102301106 -0.29105535 -0.2540596 0.038845114
-0.18139768 0.25220177 -0.07132157 -0.05278118 -0.36943424 0.13464095 -0.21597812 -0.252907
-0.22617161 -0.050848853 -0.29199803 0.3001332 -0.3197147 -0.13068649 -0.26100752 -0.1219892
0.30681738 0.15235634 0.07488413 -0.1329101 -0.012743963 0.41459423 0.065474756 -0.11726031
0.07664721 -0.23859918 0.13130547 -0.14895919 -0.18143012 0.08728681 -0.23053268 -0.28405285
0.091455735 -0.32745472 -0.35332158 -0.025792599 -0.03662926 -0.25984246 0.0147006055 -0.22874564

linear2.weight f4 [3, 256]
00000000: de16 5bbe e4f2 8ebe f7df 9abe dffd a13e
00000010: 600c 85be b5fd 5b3e add2 303d 6cc0 a5be
00000020: f8fd 56be a9df 7ebe 644a 0bbf 455d abbe
00000030: 3dd8 9f3e 05d0 04bf d906 823e 1a9b 7abd
00000040: 86b1 1bbe 3aa6 7e3e a6f5 64be 4fc9 1abe
00000050: bf4b aebd 95b8 133d f6e6 c1bc 1933 e23e
00000060: 7797 053c ceb8 92bc c3b9 b13e dbec 9a3e
00000070: c627 c5be b2b5 edbd 73c5 73be 0852 373d
00000080: 2ac5 363e a978 b93e cea9 223e 9365 90be
00000090: e7fe c53d 87ca c1be 043e 49be 4d33 a5bd
000000a0: 3d5b 853d 6639 dabe 151b f5bd bed1 313c
000000b0: 224d c73c 14d3 37bb 6f2f d93d b851 0f3e
000000c0: c6a4 903e 50cb febc ac0a 683a b63b 1a3e
000000d0: ea17 87be 80c6 b9be 6bfe f13b f796 c23e
000000e0: cbe1 bd3d 4554 d63e 1e06 75be dfe3 c5be
000000f0: 4135 603e 5407 13be d1b0 cd3e 77b4 58bd
00000100: f206 26be 1d22 d6bc a7e0 7a3e 27aa ab3c
00000110: 2cfc a7bd 47e3 0c3f 058d 9fbd ee85 1bbb
00000120: 5c6b f23d 79d4 093f 5ac1 823e 5abd b23b
00000130: 52ec 28be 6040 7cbd 9944 2ebf 7920 2cbe
00000140: 84e7 80bd d911 2cbd 5d2d abbd 6513 cdbe
00000150: 54a9 913d cfcb c43d 2c5b 753e 7e10 553e
00000160: f5e3 b13c edc7 f9bd c42c 333c ee3b bcbd
00000170: b4ea b33d 3160 a4bb 6eee 9ebc 6640 623c
00000180: 9b58 9a3d b546 98bd 271d ed3e aba5 1e3e
00000190: 3f6e c53e f46e a63d a32e 0dbe e0f4 50bb
000001a0: 7a63 17be c51c 7e3e 2b07 e23d 2428 153b
000001b0: 3873 f6bd d9f4 f5bc 3cb9 3dbe 54ae 8dbe
000001c0: 5dea 613e f544 ea3c d0ee 99be 86c8 ecbe
000001d0: 610c ca3e 4815 5bbd a39d debc 302b c33b
000001e0: 7683 95bd 7cb1 f7bb 9cfb 653e 1c8a b63c
000001f0: c591 8bbe 3bc9 e7be d8ad 093f 7be7 cf3d
00000200: 3097 833c efc0 083d dfb0 383e 6692 2a3e
00000210: b341 b8bd 19e6 913e e884 85bb f372 eebe
00000220: c920 b83e 6b26 a73e ee7b 35be 690a c8bd
00000230: e179 ffbe 0258 c9bd c6e1 40be 0945 c7bd
00000240: 885f 27bd 29f4 873e 133f 4c3e 8836 3dbd
00000250: fc0f 7fbb 4d17 4ebc 864c d83c b164 0f3f
00000260: 3935 b0bc 0594 5f3e 7940 5bbe 3000 d4be
00000270: 5489 fdbe d1bf be3c 9e50 193f 4669 433e
00000280: 9374 1fbe ec64 073f 3a0b c73e cfeb e6be
00000290: 43e9 89be bcde adbe 0e23 753e 3f37 9fbe
000002a0: 36f8 013e 573a c43e 4140 173e a765 bcbe
000002b0: c24f 89be 25a9 8ebe 50d0 d5be 848d bcbe
000002c0: 7f84 21be 1fcc 853e 2e27 573e f24a 5dbd
000002d0: 1502 7f3e 7623 c03e 282f 9ebd 5165 32be
000002e0: f19e 18bb 0155 dabd 38d3 12bf fd1b 07bd
000002f0: 04a3 d43c 785b 79be ba56 a43c 9aeb 6e3c
00000300: d247 57be a8a0 f8be 8bea cb3d 04f7 2cbe
00000310: 24e5 ffbe 5a68 05be 33c9 2bbf b49c a4bd
00000320: 24ff 85be 8c5c dbbe deb3 b8bd d9b0 06be
00000330: 4e51 acbd b2b6 17be 5be7 a33c 0fe0 71be
00000340: 5d3c 6cbe aa82 ef3e 3d13 f2bd 5c45 88bc
00000350: fc15 94be 5f65 e7bc 2e29 853a ff61 59be
00000360: 767a 07be bbd1 8c3e 4e13 33bd 297f 2b3d
00000370: 3908 7dbe 4dcc fe3d 1f63 04be e560 c8bd
00000380: f526 ddbd 20db d43d 12a7 96bb 60e9 ea3d
00000390: 5d26 19bd 49a9 19be 91e9 96bc c87f ef3e
000003a0: 2b8b 733e e7a6 263e 8daf 693d 185d 99bd
000003b0: aec6 1abd 0bb6 7c3e 488f 533d 3d8a e4be
000003c0: 2284 c23e 0b99 30bd 857c 213e 67ec 3dbe
000003d0: 2f57 213e b634 013f 1ef4 73bc a65a 5fbd
000003e0: afc5 8d3e b01b 95bd d01c 33be 9f01 9d3e
000003f0: 2e9b d83b 45f8 24be ca3a bb3d d03c bc3e
-0.21395442 -0.27919686 -0.30248997 0.31639 -0.25986004 0.214835 0.043169666 -0.3237337
-0.20995319 -0.24890007 -0.54410386 -0.33469597 0.31219664 -0.5187991 0.2539585 -0.061183073
-0.15204439 0.24868098 -0.22359332 -0.15115856 -0.08510541 0.036064703 -0.023669701 0.4417961
0.008153788 -0.017910387 0.34712037 0.3025883 -0.38506907 -0.11606921 -0.2380579 0.044755965
0.1784865 0.3622487 0.15885088 -0.28202495 0.096677594 -0.3784983 -0.19652563 -0.080664255
0.06511543 -0.42621917 -0.11968056 0.010853229 0.024328772 -0.0028049396 0.1060475 0.13996017
0.28250712 -0.031102806 0.0008851688 0.1506184 -0.26385432 -0.36284256 0.0073850653 0.38005802
0.09271582 0.41861168 -0.23928115 -0.38650414 0.21895315 -0.14358264 0.40173963 -0.05290648
-0.16213587 -0.026139313 0.2449976 0.020955158 -0.08202395 0.550343 -0.07790569 -0.0023730951
0.118368834 0.5383983 0.2553814 0.0054547014 -0.16496399 -0.06158483 -0.6807342 -0.16809262
-0.06294158 -0.04200921 -0.08358262 -0.4005386 0.07112375 0.09609186 0.2396056 0.20807073
0.021715144 -0.12196336 0.010935966 -0.09191118 0.087850004 -0.0050163497 -0.019400802 0.013809299
0.075364314 -0.07435361 0.46311304 0.15492885 0.38560674 0.081266314 -0.13787322 -0.0031884238
-0.14784041 0.24815662 0.110365234 0.0022759521 -0.12033695 -0.030023979 -0.18527693 -0.27672064
0.22062059 0.028597334 -0.30065012 -0.46246737 0.3946257 -0.053487092 -0.027174776 0.005956076
-0.07300465 -0.0075589996 0.22459263 0.022282653 -0.2725965 -0.45270714 0.5378089 0.10151573
0.016063303 0.03338712 0.18036221 0.16657409 -0.08996906 0.28495863 -0.0040746816 -0.46572074
0.35962513 0.32646498 -0.17723057 -0.097676106 -0.49897674 -0.09831239 -0.18836126 -0.09729964
-0.04086259 0.26553467 0.19945936 -0.046194583 -0.003891944 -0.0125787975 0.026403677 0.5601302
-0.021509754 0.21833809 -0.21411313 -0.41406393 -0.49518836 0.023284825 0.5988864 0.19083127
-0.15571813 0.5288837 0.38875753 -0.45101783 -0.26935777 -0.33958995 0.23939154 -0.31096837
0.12692341 0.3832576 0.14770605 -0.36796305 -0.26818663 -0.27863422 -0.41760492 -0.36826718
-0.157732 0.26132295 0.2101104 -0.05402655 0.24903138 0.37527055 -0.07723838 -0.17421462
-0.0023288096 -0.106607445 -0.57353544 -0.032985676 0.025956638 -0.24351299 0.020060886 0.014582539
-0.21023491 -0.4856007 0.09956845 -0.16891104 -0.49979508 -0.13028088 -0.6710388 -0.08037701
-0.2617122 -0.42844045 -0.09018682 -0.131534 -0.08413945 -0.14815786 0.02000778 -0.23620628
-0.23069902 0.46779376 -0.11820076 -0.016634636 -0.28923023 -0.02824658 0.0010159367 -0.21228789
-0.13230309 0.27503762 -0.043719582 0.041869316 -0.24710168 0.12441311 -0.12928437 -0.09784106
-0.10798446 0.10393357 -0.004597553 0.11470294 -0.0373901 -0.15005983 -0.01842192 0.46777177
0.23783557 0.16274606 0.057052184 -0.07488459 -0.037787132 0.24678819 0.051650316 -0.44636717
0.37991434 -0.043114703 0.15770157 -0.18547212 0.15755914 0.50471056 -0.014889745 -0.05452981
0.27689883 -0.072806716 -0.1749146 0.306653 0.0066102957 -0.16110332 0.091420725 0.36765146

linear2.bias f4 [3]
00000000: c5ae 9c3e 7bd3 a2bc cd05 543c
0.3060209 -0.019876232 0.012940836
